ConvLSTM/checkpoints/checkpoint.pth (torch, 475874 bytes, 31 tensors)

conv_lstm1.weight f4 [64, 1, 1, 3, 3]
-0.30222097 0.004564356 -0.23756656 0.40750402 0.63693684 0.51356506 -0.073990524 0.21322155
-0.39036605 0.028757779 0.33843616 0.7018164 -0.5593299 -0.12239009 -0.23446883 0.14493099
-0.0009084213 0.21684022 0.21046019 -0.4237935 -0.36714134 -0.08883246 0.35362074 0.44147998
-0.48188406 -0.27680013 0.13003223 0.3771575 0.0049439697 0.5584337 0.24636193 -0.45333686
0.28428823 -0.21236505 -0.42681998 0.052967887 0.5149775 0.5905001 0.09223139 -0.48239556
0.05141876 -0.32885242 0.1719172 -0.2300472 0.09727647 0.042647365 -0.30725607 -0.42517424
0.3845142 0.55582726 0.61607814 -0.31134936 -0.36020654 0.17398843 -0.13072404 0.15171574
-0.0409117 -0.57376546 0.31089154 0.32168004 -0.23330586 0.39702463 0.26308662 -0.17234685
-0.98074335 -0.05678835 0.1894559 -0.09100966 0.015295317 0.30204332 0.26797584 -0.030201914
0.015456397 -0.37904632 0.56064695 -0.2697513 -0.14500801 0.17349657 0.29493162 -0.2609775
0.50554836 -0.17525798 -0.25071102 0.3740244 0.10821399 -0.22613123 -0.49241623 0.63738173
0.43772396 -0.44631982 -0.0030784486 -0.18335833 0.39827663 0.42086166 -0.20341773 0.14288712
0.38119853 -0.5752745 -0.49457955 -0.30604964 0.21066788 -0.052993342 0.8199987 0.7142821
0.19502531 0.091939904 0.13362457 -0.47004274 0.15674339 -0.44731343 -0.55661875 0.5321213
0.009512431 0.1868888 -0.16479245 -0.042289823 -0.212503 -0.2399095 -0.43784687 -0.7383403
0.14897752 0.15517105 -0.2229071 0.3657347 0.26364198 0.10651617 -0.2845867 -0.05061719
-0.540322 0.00484742 0.2992296 -0.01231065 0.41659576 0.6086982 -0.14064091 -0.4627621
-0.07607253 0.08963201 -0.05119223 -0.30182856 0.40229186 -0.023146516 0.13667564 0.7172438
0.6316069 0.2269783 -0.2719581 0.4490788 0.022767844 -0.4756928 0.16556574 -0.097593874
-0.054755785 0.067259766 0.2914709 0.75428575 -0.3156946 0.24282113 -0.014277916 0.04519336
-0.45333254 -0.15753074 0.29471284 0.35287783 -0.45376247 0.5599946 0.02865994 -0.0390863
-0.6042393 -0.0021842394 -0.018192783 0.45910248 0.20929939 -0.19969028 -0.5126464 -0.3063727
-0.06171825 -0.37645403 0.34938318 0.39507705 -0.19215283 0.33407006 0.62183225 -0.22353455
-0.34099 -0.16630755 0.37439695 0.2515213 -0.21306086 -0.061398976 0.7319146 0.3750784
-0.47954458 0.18361022 -0.15585251 0.26020038 -0.117769174 -0.20697768 -0.23318034 -0.23120412
-0.022496333 0.42039937 -0.1534119 -0.5145841 0.21663019 0.16120982 0.42310736 0.101735994
0.29758584 0.27642715 -0.41824624 0.030986499 0.4280281 -0.45912927 -0.5681507 -0.23592313
-0.5416696 0.37633568 0.30582112 0.020890763 0.34527388 -0.43326816 -0.085516766 0.35119835
-0.36072648 0.13081113 -1.0207185 -0.32918242 0.079218246 -0.32380688 0.12953366 0.08656315
0.40575036 0.14247185 -0.3272834 -0.62506896 0.28190956 0.13765231 -0.23513047 0.18753935
-0.14208497 -0.30177665 0.49540776 0.48686463 0.11220092 0.2196422 -0.436676 -0.28649357
-0.46771252 0.016887747 -0.11099234 0.41047463 -0.23486283 -0.22037864 0.06793764 0.11828795
00000000: b5bc 9abe 9890 953b a644 73be 5ea4 d03e
00000010: 4b0e 233f 0079 033f 5888 97bd c056 5a3e
00000020: 0fde c7be 6f95 eb3c 8147 ad3e 3daa 333f
00000030: 3f30 0fbf a8a7 fabd 9918 70be ca68 143e
00000040: 1f23 6eba 5d0b 5e3e e082 573e 76fb d8be
00000050: f3f9 bbbe cbed b5bd c70d b53e aa09 e23e
00000060: 82b9 f6be bfb8 8dbe 2b27 053e ca1a c13e
00000070: 0601 a23b 83f5 0e3f 4d46 7c3e c51b e8be
00000080: 3a8e 913e 3976 59be 2688 dabe dbf4 583d
00000090: 91d5 033f 042b 173f d0e3 bc3d 8dfc f6be
000000a0: 7a9c 523d 585f a8be 100b 303e 7e91 6bbe
000000b0: e338 c73d 01af 2e3d ab50 9dbe 70b0 d9be
000000c0: 0cdf c43e b24a 0e3f 4cb7 1d3f 2f69 9fbe
000000d0: fe6c b8be 062a 323e 86dc 05be 5f5b 1b3e
000000e0: 0793 27bd 4be2 12bf 2d2d 9f3e 3fb3 a43e
000000f0: bbe7 6ebe d046 cb3e 4ab3 863e b17b 30be
00000100: ff11 7bbf e79a 68bd ba00 423e 4663 babd
00000110: 3699 7a3c 6ca5 9a3e 2134 893e 016a f7bc
00000120: d43c 7d3c 5c12 c2be 8f86 0f3f d81c 8abe
00000130: fb7c 14be 16a9 313e 4701 973e d89e 85be
00000140: 9e6b 013f d476 33be 325d 80be 2080 bf3e
00000150: 4c9f dd3d f28e 67be fb1d fcbe 732b 233f
00000160: 5b1d e03e 0884 e4be ccbf 49bb 49c2 3bbe
00000170: eaea cb3e 2e7b d73e bd4c 50be 0051 123e
00000180: 742c c33e 3145 13bf 8839 fdbe 8ab2 9cbe
00000190: 52b9 573e 8c0f 59bd 6feb 513f 31db 363f
000001a0: b7b4 473e fd4a bc3d e1d4 083e 71a9 f0be
000001b0: 5781 203e 4406 e5be 917e 0ebf 1a39 083f
000001c0: 07da 1b3c c75f 3f3e 5abf 28be 1838 2dbd
000001d0: 639a 59be d6aa 75be 772d e0be df03 3dbf
000001e0: 908d 183e 29e5 1e3e c241 64be 9441 bb3e
000001f0: 15fc 863e 2625 da3d 59b5 91be f853 4fbd
00000200: 8b52 0abf 1bd7 9e3b 9f34 993e 9cb2 49bc
00000210: 0a4c d53e a5d3 1b3f 2c04 10be 27ef ecbe
00000220: eacb 9bbd fd90 b73d f2ae 51bd 4689 9abe
00000230: 33f9 cd3e c39d bdbc b3f4 0b3e 4a9d 373f
00000240: fdb0 213f 006d 683e 183e 8bbe a8ed e53e
00000250: a183 ba3c 028e f3be 118a 293e 4cdf c7bd
00000260: 9a47 60bd 7dbf 893d ac3b 953e df18 413f
00000270: b9a2 a1be 1aa6 783e eced 69bc ac1c 393d
00000280: 341b e8be bd4f 21be 9ae4 963e 67ac b43e
00000290: 8e53 e8be ce5b 0f3f 40c8 ea3c f518 20bd
000002a0: 6daf 1abf 7525 0fbb 0809 95bc 7b0f eb3e
000002b0: 9452 563e 9c7b 4cbe cb3c 03bf e2dc 9cbe
000002c0: 47cc 7cbd 95be c0be 5ae2 b23e 8a47 ca3e
000002d0: b6c3 44be 3b0b ab3e 6630 1f3f 3ee6 64be
000002e0: 3e96 aebe 874c 2abe f5b0 bf3e 66c7 803e
000002f0: a02c 5abe 7e7d 7bbd c15e 3b3f 470a c03e
00000300: de86 f5be 5104 3c3e cd97 1fbe fc38 853e
00000310: f730 f1bd f5f1 53be d4c6 6ebe c6c0 6cbe
00000320: 3b4a b8bc 963e d73e 0218 1dbe c9bb 03bf
00000330: 4ed4 5d3e 3014 253e 87a1 d83e f65a d03d
00000340: 2c5d 983e dc87 8d3e 5f24 d6be 66d7 fd3c
00000350: 8026 db3e fe12 ebbe 5372 11bf d595 71be
00000360: dcaa 0abf 12af c03e 9694 9c3e 1b23 ab3c
00000370: bdc7 b03e 53d5 ddbe 6a23 afbd 45d0 b33e
00000380: 24b1 b8be 5af3 053e e7a6 82bf 998a a8be
00000390: 2d3d a23d 04ca a5be 79a4 043e 0548 b13d
000003a0: 83be cf3e 24e4 113e b191 a7be 8504 20bf
000003b0: 7356 903e baf4 0c3e 0bc6 70be 510a 403e
000003c0: b97e 11be 7882 9abe 16a6 fd3e 5246 f93e
000003d0: 99c9 e53d e3e9 603e ff93 dfbe 49af 92be
000003e0: 0478 efbe 2c58 8a3c f44f e3bd bb29 d23e
000003f0: e27f 70be f0aa 61be e422 8b3d f440 f23d

conv_lstm1.bias f4 [64]
0.10621444 0.023313181 0.5434001 0.017097468 0.073614895 -0.025503198 -0.11997741 -0.23818372
0.3776572 -0.16416907 0.10715905 -0.32300487 -0.014590258 0.007186796 0.28244877 -0.076091856
-0.09256143 0.015892478 0.03765129 0.31220487 -0.16269831 0.098423086 -0.26265836 0.26706722
0.27649787 0.23758945 0.22107975 -0.28581202 -0.13065076 0.42287987 0.01738635 -0.001637816
0.07935741 -0.36204743 0.40490177 0.17060581 -0.0011657159 -0.19627117 -0.3675083 -0.009362427
-0.60764813 -0.24012439 0.10867798 0.018533459 0.03773447 0.46892142 0.010738972 0.13114336
-0.13386187 0.32418278 -0.15687633 -0.0623478 0.07926559 -0.104064375 -0.10518029 -0.36209562
-0.29599094 0.28566673 -0.03993547 -0.05627684 -0.14360149 -0.26672092 0.093857124 0.09295137
00000000: f586 d93d 49fb be3c 451c 0b3f fd0f 8c3c
00000010: 68c3 963d 15ec d0bc b7b6 f5bd 6fe6 73be
00000020: 495c c13e f01b 28be 3476 db3d e560 a5be
00000030: fa0b 6fbc 377f eb3b 209d 903e 0cd6 9bbd
00000040: d990 bdbd f130 823c 3d38 1a3d 51d9 9f3e
00000050: 639a 26be 0b92 c93d 287b 86be 09bd 883e
00000060: 2191 8d3e a64a 733e bb62 623e f455 92be
00000070: 50c9 05be b683 d83e d26d 8e3c fcab d6ba
00000080: 2386 a23d 485e b9be 494f cf3e 4ab3 2e3e
00000090: efca 98ba 4ffb 48be 0c2a bcbe dd64 19bc
000000a0: d48e 1bbf 2be3 75be 9092 de3d 7bd3 973c
000000b0: 768f 1a3d 7816 f03e 83f2 2f3c 724a 063e
000000c0: 1613 09be 49fb a53e 30a4 20be 6860 7fbd
000000d0: ff55 a23d b41f d5bd c468 d7bd 9964 b9be
000000e0: 208c 97be e942 923e 6093 23bd 8b82 66bd
000000f0: 450c 13be a58f 88be 2a38 c03d 4a5d be3d

bn1.weight f4 [64]
1.0770559 0.12424546 1.3013387 0.80140096 0.21633282 1.5349228 0.18870476 0.8239984
0.86386395 1.3078729 1.087412 0.5799278 0.3442556 0.97137505 0.8770407 0.35626492
0.35113758 0.70167506 0.8499941 1.6022615 0.6342659 0.73097277 0.6560344 1.0561465
0.76279503 0.72303563 0.5549671 1.1755338 1.2665501 0.8713874 0.53024036 0.051931456
1.2297951 1.3029684 0.58380705 0.6275987 0.926553 0.31797495 1.0562946 0.83118314
1.5493674 0.3799533 0.21390863 0.9369393 0.59121025 0.49260935 0.7511917 0.13050856
1.045738 0.6027118 1.0198193 0.4817428 0.011143036 0.71353775 0.56441295 0.9023687
0.70122725 1.8472815 1.0161393 0.9941762 0.8190467 0.7033259 0.1952546 1.3595805
00000000: f8dc 893f 6774 fe3d 4492 a63f 9d28 4d3f
00000010: 5a86 5d3e 5a78 c43f d23b 413e 8ff1 523f
00000020: 3026 5d3f 6168 a73f 5130 8b3f 2676 143f
00000030: 4542 b03e 09ac 783f bd85 603f 5b68 b63e
00000040: 4ec8 b33e faa0 333f 3799 593f e816 cd3f
00000050: 405f 223f 0821 3b3f dff1 273f cf2f 873f
00000060: 8946 433f dd18 393f 5312 0e3f e477 963f
00000070: 501e a23f 3f13 5f3f d5bd 073f 14b6 543d
00000080: ed69 9d3f abc7 a63f 6174 153f 4faa 203f
00000090: 9432 6d3f 9dcd a23e a934 873f 6bc8 543f
000000a0: ac51 c63f 3d89 c23e dd0a 5b3e 41db 6f3f
000000b0: 8e59 173f 4b37 fc3e 194e 403f 09a4 053e
000000c0: beda 853f 524b 1a3f 7089 823f fea6 f63e
000000d0: 4891 363c 69aa 363f 5e7d 103f a301 673f
000000e0: a183 333f b873 ec3f da10 823f 5582 7e3f
000000f0: 0bad 513f 2b0d 343f d2f0 473e bc06 ae3f

bn1.bias f4 [64]
1.7275584 -1.7029817 0.15288529 -0.9227808 -2.1119406 1.0519694 0.50509244 0.067221716
-1.1952604 -1.1335089 -1.3709639 -0.15965858 1.7849299 0.5521522 1.430064 0.22813818
-1.8359448 -0.0010400577 0.87507814 -1.210219 -2.0489259 0.9659403 -0.103158094 -0.52550626
2.0223622 0.26071194 -0.35965195 -0.8109863 -0.01890968 0.39659196 0.24576835 -2.2613945
1.3135618 -1.16739 1.4962096 -1.9156504 -0.3099109 0.5255527 0.7329811 1.0261825
-1.4865468 1.1510308 -2.0917609 -0.20578162 -0.12424258 0.9040344 -0.7569117 -0.5612386
-1.9397975 -1.2710768 0.37542203 2.3427854 2.3719823 -0.45085317 -1.9249614 -0.2788233
-1.4997748 1.8520722 1.0715691 -1.707767 1.6586949 -1.0312182 -1.8441156 -0.7765445
00000000: a220 dd3f 4efb d9bf f68d 1c3e 5d3b 6cbf
00000010: 092a 07c0 efa6 863f bd4d 013f 8aab 893d
00000020: 4bfe 98bf d216 91bf bf7b afbf 8a7d 23be
00000030: 9578 e43f d959 0d3f 560c b73f 0e9d 693e
00000040: 3d00 ebbf 8c52 88ba 1f05 603f 75e8 9abf
00000050: 9a21 03c0 dd47 773f 8d44 d3bd 9487 06bf
00000060: 626e 0140 097c 853e 4d24 b8be cc9c 4fbf
00000070: 79e8 9abc 1a0e cb3e b3aa 7b3e b0ba 10c0
00000080: cb22 a83f 096d 95bf cc83 bf3f 0834 f5bf
00000090: a4ac 9ebe 9f8a 063f a6a4 3b3f f359 833f
000000a0: 2a47 bebf fa54 933f 69df 05c0 6bb8 52be
000000b0: e572 febd cc6e 673f f7c4 41bf 55ad 0fbf
000000c0: 494b f8bf a5b2 a2bf 5137 c03e 32f0 1540
000000d0: 8fce 1740 3ad6 e6be 2365 f6bf edc1 8ebe
000000e0: 9ff8 bfbf b410 ed3f 2d29 893f 1c98 dabf
000000f0: 1d50 d43f f5fe 83bf fb0b ecbf 9fcb 46bf

bn1.running_mean f4 [64]
0.4413844 0.22926164 0.34007627 0.18885028 0.26544797 0.13557518 0.0745315 -0.47038162
0.5739551 -0.17767252 0.05713715 0.24648452 -0.2328279 -0.23585494 0.40889993 0.0968034
0.15192693 0.20375776 0.089784615 0.29503232 0.016004259 0.31694314 -0.23573211 0.043266524
0.2721268 -0.054412544 0.00022842998 -0.31457794 -0.111986466 0.78916484 0.49150994 0.6319357
-0.12891175 -0.18056427 -0.8038586 0.35579008 0.19214946 -0.018110987 -0.58400905 -0.19382492
-0.39032438 -0.32359773 0.30175012 -0.23312975 -0.452788 0.2387762 -0.4441206 0.3589014
0.014909248 1.4598482 0.057247102 -0.22385831 -0.061997663 0.07133114 0.14972104 -1.026005
0.9116902 0.10863391 0.2947696 0.14641519 -0.34368342 -0.3718602 0.32427853 0.06858263
00000000: 23fd e13e 90c3 6a3e 7a1e ae3e f861 413e
00000010: cce8 873e 38d4 0a3e f9a3 983d dcd5 f0be
00000020: b9ee 123f c9ef 35be a508 6a3d 7066 7c3e
00000030: 706a 6ebe f583 71be 555b d13e dc40 c63d
00000040: bc92 1b3e e0a5 503e ffe0 b73d 7a0e 973e
00000050: 5d1b 833c 5f46 a23e c263 71be 3d38 313d
00000060: 3454 8b3e b0df 5ebd b586 6f39 5c10 a1be
00000070: 2959 e5bd b506 4a3f 31a7 fb3e 8ac6 213f
00000080: 7101 04be d7e5 38be adc9 4dbf 1e2a b63e
00000090: d4c2 443e 7e5d 94bc 9e81 15bf 0a7a 46be
000000a0: 99d8 c7be 9aae a5be fe7e 9a3e 91b9 6ebe
000000b0: d4d3 e7be c081 743e c663 e3be edc1 b73e
000000c0: eb45 743c 4edc ba3f f07b 6a3d 1d3b 65be
000000d0: 43f1 7dbd 1016 923d 7950 193e 2254 83bf
000000e0: 8764 693f 757b de3d 0aec 963e dded 153e
000000f0: 46f7 afbe 7664 bebe d607 a63e 0d75 8c3d

bn1.running_var f4 [64]
0.055299044 0.032692917 0.02431342 0.034140423 0.029528344 0.026665669 0.032387607 0.04562098
0.029675307 0.019331455 0.019486373 0.13521792 0.03154871 0.059439063 0.034451086 0.040466003
0.049350902 0.037078697 0.01567612 0.011987087 0.020847317 0.033000514 0.015691496 0.0526003
0.011460241 0.060578957 0.037167888 0.012960412 0.018103132 0.061300624 0.09674601 0.1621919
0.035779674 0.02369298 0.5051371 0.035052065 0.03199027 0.043097865 0.037261166 0.025014307
0.034593247 0.03222566 0.028935667 0.043224502 0.09830495 0.04523863 0.08832758 0.053578693
0.017432865 0.4508863 0.048494358 0.017820492 0.025558632 0.027354935 0.05935456 0.17097698
0.51431364 0.022043979 0.057858557 0.034172166 0.030037165 0.020082938 0.039062835 0.012328094
00000000: 4081 623d 02e9 053d f02c c73c d4d6 0b3d
00000010: 6de5 f13c f671 da3c dea8 043d 11dd 3a3d
00000020: a119 f33c 005d 9e3c e3a1 9f3c 9176 0a3e
00000030: 3839 013d 6076 733d 951c 0d3d aebf 253d
00000040: 2c24 4a3d d5df 173d 356b 803c 7d65 443c
00000050: fec7 aa3c 8c2b 073d 748b 803c 6a73 573d
00000060: bcc3 3b3c a421 783d 5b3d 183d e857 543c
00000070: 054d 943c 5d16 7b3d c622 c63d a215 263e
00000080: b58d 123d c817 c23c aa50 013f c192 0f3d
00000090: 3b08 033d 6387 303d 2a9f 183d ceea cc3c
000000a0: a6b1 0d3d 0eff 033d 7e0a ed3c 2d0c 313d
000000b0: 1b54 c93d 244c 393d 17e5 b43d 5575 5b3d
000000c0: 5ecf 8e3c 92da e63e 05a2 463d 48fc 913c
000000d0: 5660 d13c 7517 e03c c41d 733d 9714 2f3e
000000e0: 0faa 033f 9395 b43c 18fd 6c3d 1df8 0b3d
000000f0: 8010 f63c f984 a43c 5a00 203d c6fb 493c

conv_lstm2.weight f4 [64, 64, 1, 3, 3]
-0.015362614 -0.15814878 -0.18163055 0.19394423 0.13398011 0.051585644 -0.31365305 -0.40426907
-0.3285102 -0.05901104 0.21498643 0.10339796 -0.18272759 -0.05638494 -0.19811511 0.10350297
0.18274306 0.10592262 -0.14131834 0.0010579542 -0.11908061 0.14845423 0.14840208 0.20455284
-0.09785101 0.02135068 -0.09820568 -0.09611362 -0.06374578 -0.15374151 -0.27584007 -0.07668028
-0.18183142 0.115225926 0.27066818 0.2019677 -0.069573216 0.12026159 0.043614335 -0.20947717
-0.26370758 -0.20496053 0.20194863 0.17769791 0.20950404 -0.27645275 -0.1344377 -0.34585
0.22900483 0.33629426 0.37558115 -0.2567195 -0.0815338 -0.39311808 -0.034230437 0.14029568
-0.116153374 -0.016961416 0.04780613 -0.21499908 0.07246974 0.0932956 -0.17160782 0.0647895
-0.02496073 0.08732644 0.16771446 0.14904562 0.2854064 -0.24789678 -0.1471008 0.0060691177
-0.082258046 0.24402192 0.032096427 -0.1675213 0.08004871 -0.12318194 -0.094320364 0.217137
-0.0068469155 0.3010449 0.03425491 0.37922287 0.019313507 -0.18654756 -0.09679485 -0.112929165
-0.1010617 0.16048355 -0.08488223 -0.38780582 -0.1250744 -0.043737434 0.00029244795 0.07896111
-0.14907165 -0.14846885 0.03730294 -0.02595356 -0.17201817 0.026174882 0.101879336 -0.07167101
0.06058644 -0.017942943 -0.18130642 -0.023029834 -0.024838362 -0.27909368 -0.030859007 0.19084497
0.029457184 0.24546367 -0.10712897 -0.2159282 -0.054598402 0.15106425 0.005520631 0.1623997
0.2687606 0.12949385 0.2982224 -0.1617483 -0.31088817 -0.15498076 0.060074504 -0.096724175
0.024838924 0.2319127 0.04282764 0.10747951 -0.2027945 -0.45791513 -0.29597282 0.0058150375
0.21661717 -0.049613144 -0.04338304 0.22170542 -0.03078185 -0.13627754 0.05355145 -0.24627264
0.049386665 -0.1379545 0.09124267 0.010947542 -0.19203688 -0.0011934956 0.07921828 -0.0689248
0.16025126 -0.23933338 0.061222274 -0.19390082 -0.19744638 -0.15826644 -0.2835807 0.07957057
0.21165855 0.14248018 -0.11654852 -0.43072352 -0.2383862 0.04762575 -0.09195128 0.0020968865
0.06569641 -0.08828405 -0.0030907246 0.18808095 0.38526133 0.22693539 -0.5954514 -0.43524814
-0.4741324 0.57798386 0.5858672 0.3867707 0.087338336 0.16306922 0.14449917 -0.26718178
-0.048200384 -0.23927598 0.03902129 0.15334582 0.16611138 -0.066220306 0.1340873 -0.13176478
-0.083086625 -0.13027595 -0.42753828 0.1821702 0.142164 -0.07950159 0.2504369 0.14536373
0.24438857 0.10596923 0.15841492 0.116053686 -0.13842165 -0.334335 -0.20555063 -0.124713965
0.10487066 -0.081775755 -0.13995819 0.03594919 -0.10047819 0.17583312 0.3759013 0.12659056
-0.076272 -0.14236663 -0.096151404 -0.21972688 -0.203059 -0.21093734 0.075977646 0.12125399
0.075230196 0.048122372 -0.044837672 0.112500206 0.06835455 0.067378044 0.22845942 -0.17701176
-0.055831455 -0.0059698084 -0.05397436 0.13888603 0.013138028 -0.056697644 0.1733609 0.08821149
-0.08331773 0.08745878 -0.05597495 0.10491008 0.25822654 0.16625679 -0.6630011 -0.65464973
-0.64316994 0.6532196 0.5837889 0.5432918 0.22457348 -0.082383335 0.27089024 0.09655013
00000000: 79b3 7bbc c1f1 21be 5cfd 39be 5199 463e
00000010: 1532 093e 784b 533d 2297 a0be 5bfc cebe
00000020: 7d32 a8be 8fb5 71bd 6725 5c3e 4fc2 d33d
00000030: f11c 3bbe e5f3 66bd b0de 4abe 5df9 d33d
00000040: ff20 3b3e f5ed d83d c1b5 10be 0dab 8a3a
00000050: 89e0 f3bd 6304 183e b7f6 173e 4d76 513e
00000060: 1c66 c8bd 9fe7 ae3c 0f20 c9bd 38d7 c4bd
00000070: 268d 82bd 6a6e 1dbe e93a 8dbe 8d0a 9dbd
00000080: 0432 3abe 92fb eb3d 0595 8a3e 9fd0 4e3e
00000090: 677c 8ebd b54b f63d f2a4 323d 2f81 56be
000000a0: ae04 87be 2ce1 51be 9fcb 4e3e 71f6 353e
000000b0: 3a88 563e 378b 8dbe 09aa 09be 4013 b1be
000000c0: 3e80 6a3e c32e ac3e 2c4c c03e bd70 83be
000000d0: 31fb a6bd c646 c9be 3735 0cbd aca9 0f3e
000000e0: d2e1 edbd abf2 8abc 5cd0 433d b828 5cbe
000000f0: 046b 943d c311 bf3d f6b9 2fbe 5bb0 843d
00000100: 727a ccbc 34d8 b23d 57bd 2b3e 6a9f 183e
00000110: ca20 923e a7d8 7dbe 98a1 16be 73df c63b
00000120: e876 a8bd e2e0 793e 8b77 033d b48a 2bbe
00000130: 94f0 a33d d046 fcbd 092b c1bd 2959 5e3e
00000140: 175c e0bb 8f22 9a3e e04e 0c3d 8029 c23e
00000150: 5c37 9e3c 5306 3fbe 613c c6bd 6847 e7bd
00000160: 70f9 cebd cd55 243e bcd6 adbd 7c8e c6be
00000170: 8113 00be 0626 33bd b353 9939 5db6 a13d
00000180: 3da6 18be 3808 18be f8ca 183d 8f9c d4bc
00000190: 8825 30be b56c d63c 1da6 d03d 40c8 92bd
000001a0: 7d29 783d 14fd 92bc 64a8 39be 10a9 bcbc
000001b0: d279 cbbc 5ee5 8ebe 07cc fcbc dd6c 433e
000001c0: 3150 f13c d45a 7b3e 6f66 dbbd 481c 5dbe
000001d0: 93a2 5fbd 96b0 1a3e 69e6 b43b 1b4c 263e
000001e0: fd9a 893e 099a 043e 9bb0 983e 59a1 25be
000001f0: bc2c 9fbe 47b3 1ebe af10 763d 5317 c6bd
00000200: 007b cb3c 867a 6d3e 096c 2f3d 381e dc3d
00000210: 5da9 4fbe da73 eabe c089 97be 128c be3b
00000220: e4d0 5d3e 2737 4bbd 6ab2 31bd bf06 633e
00000230: 382a fcbc 578c 0bbe c458 5b3d e52e 7cbe
00000240: ac49 4a3d f243 0dbe 70dd ba3d 525d 333c
00000250: 51a5 44be 116f 9cba 323d a23d 7228 8dbd
00000260: e818 243e cf13 75be 35c4 7a3d f08d 46be
00000270: 622f 4abe 9910 22be 7d31 91be e5f5 a23d
00000280: 05bd 583e 53e6 113e feb0 eebd cb87 dcbe
00000290: 831b 74be 3813 433d f450 bcbd eb6b 093b
000002a0: d78b 863d 45ce b4bd c18d 4abb 4b98 403e
000002b0: f940 c53e c061 683e 816f 18bf d8d8 debe
000002c0: 7bc1 f2be c0f6 133f 65fb 153f cf06 c63e
000002d0: 71de b23d 9efb 263e 97f7 133e 0dcc 88be
000002e0: c46d 45bd c304 75be cad4 1f3d b006 1d3e
000002f0: 1a19 2a3e 839e 87bd 2e4e 093e 59ed 06be
00000300: 5229 aabd 0f67 05be 4ce6 dabe d38a 3a3e
00000310: 7193 113e bbd1 a2bd 4439 803e 3bda 143e
00000320: ff40 7a3e 6506 d93d 8537 223e 8ead ed3d
00000330: 68be 0dbe f52d abbe dd7b 52be 096a ffbd
00000340: 6ec6 d63d 0c7a a7bd 3351 0fbe 753f 133d
00000350: 82c7 cdbd 990d 343e 2376 c03e f5a0 013e
00000360: 7f34 9cbd 8fc8 11be 07eb c4bd 1500 61be
00000370: b3ee 4fbe f5ff 57be 2b9a 9b3d 0354 f83d
00000380: 4a12 9a3d f71b 453d b5a7 37bd 8266 e63d
00000390: 78fd 8b3d 80fd 893d 44f1 693e 9242 35be
000003a0: 86af 64bd 629e c3bb 3814 5dbd 2438 0e3e
000003b0: e240 573c ca3b 68bd 8585 313e 3aa8 b43d
000003c0: 7ca2 aabd 971d b33d fd45 65bd 19db d63d
000003d0: 4536 843e 383f 2a3e 71ba 29bf 2097 27bf
000003e0: c9a6 24bf 6639 273f 3073 153f 2c15 0b3f
000003f0: 97f6 653e 98b8 a8bd 20b2 8a3e 13bc c53d

conv_lstm2.bias f4 [64]
-0.030673124 -0.0027687845 -0.035739627 -0.047827274 0.045136277 0.015304912 0.020690566 0.008051745
-0.014000015 0.024642678 0.030913845 0.0077200555 0.002760032 -0.037276424 0.0043928465 0.01849886
-0.015616222 0.022156565 -0.01429947 -0.0137502225 0.00173807 -0.011864417 0.003233422 0.028390177
-0.05188621 0.0022049495 0.02520523 -0.012742324 -0.02052456 -0.0008790352 -0.018673247 0.0100196125
0.026946494 -0.011464291 -0.0859229 -0.0024518478 0.0010146323 0.02663658 0.035225708 -0.037351515
0.017088797 0.005284758 0.009239757 -0.053101808 -0.025897285 -0.029303623 0.036040336 0.05361326
-0.00074415957 -0.0030678648 -0.0042548934 -0.06543392 0.010532316 -0.05368591 0.039145608 0.020385956
-0.01015408 -0.051956203 -0.012860809 -0.028462078 -0.003668641 -0.034555614 -0.013659829 -0.005997495
00000000: 3446 fbbc 7f74 35bb b763 12bd 88e6 43bd
00000010: d1e0 383d 74c1 7a3c 437f a93c 77eb 033c
00000020: 5260 65bc 71df c93c 083f fd3c 85f8 fc3b
00000030: a7e1 343b 2aaf 18bd def1 8f3b ec8a 973c
00000040: 2fdb 7fbc af81 b53c 5348 6abc 9d48 61bc
00000050: f4cf e33a f962 42bc d2e7 533b 8492 e83c
00000060: a286 54bd ea80 103b 337b ce3c 2ec5 50bc
00000070: 1f23 a8bc 0e6f 66ba a3f8 98bc 4d29 243c
00000080: e5be dc3c b9d4 3bbc 58f8 afbd 2eaf 20bb
00000090: 69fd 843a f534 da3c d548 103d e7fd 18bd
000000a0: cefd 8b3c c32b ad3b 5a62 173c 4881 59bd
000000b0: 8b26 d4bc 270e f0bc 089f 133d 9499 5b3d
000000c0: b413 43ba 3b0e 49bb a26c 8bbb 3802 86bd
000000d0: bc8f 2c3c c2e5 5bbd 2557 203d 7300 a73c
000000e0: 4c5d 26bc 07d0 54bd 25b6 52bc 4e29 e9bc
000000f0: 956d 70bb 308a 0dbd 7acd 5fbc a286 c4bb

bn2.weight f4 [64]
0.009098716 0.00047032768 3.4051292e-05 -0.00050256355 -0.008319479 4.127103e-05 0.070054 0.0036826674
-0.00012077642 -0.000754301 0.0040857447 0.0026289953 0.0030781738 0.06554428 0.007047189 -0.0013678703
0.0078017917 0.00091616536 0.22264521 0.0008967177 0.18946129 0.14343105 -0.0018513306 0.0022938966
0.39429295 0.08912495 -1.4659876e-05 -0.0009073456 -0.0008782764 -0.0010444598 0.19329867 0.24146062
0.0011473232 0.0011894132 0.74710697 0.00012506111 0.08613484 0.0003437399 0.00043187395 0.0012514808
0.019397903 0.007495187 0.5558053 0.0016826915 0.23058395 0.0005000317 -0.00057515665 0.0011365119
0.00033412618 0.55118793 0.023490913 -0.0014163841 0.00056756346 0.011438402 0.54582846 0.1645156
-0.00014326377 -0.0014982434 0.0418803 0.30938053 -0.002579862 0.16487226 -0.0024753213 0.00059916684
00000000: c812 153c 5096 f639 4cd2 0e38 78be 03ba
00000010: 6d4e 08bc 6e1a 2d38 7978 8f3d e858 713b
00000020: 5949 fdb8 49bc 45ba b6e1 853b 394b 2c3b
00000030: 30bb 493b 143c 863d 1bec e63b 1c4a b3ba
00000040: 2ca6 ff3b d12a 703a 1bfd 633e b511 6b3a
00000050: 2402 423e 97df 123e 59a8 f2ba 3355 163b
00000060: c4e0 c93e 2487 b63d b0f3 75b7 efda 6dba
00000070: 223c 66ba 41e6 88ba 16f0 453e 7441 773e
00000080: c761 963a 16e6 9b3a 6742 3f3f d622 0339
00000090: 7767 b03d fd37 b439 246d e239 ba08 a43a
000000a0: 5ae8 9e3c 309a f53b 4249 0e3f c28d dc3a
000000b0: 331e 6c3e 8f14 033a 1cc6 16ba 03f7 943a
000000c0: a82d af39 a71a 0d3f 0470 c03c f7a5 b9ba
000000d0: 8ac8 143a 2368 3b3c 6abb 0b3f c776 283e
000000e0: 1339 16b9 b560 c4ba ad8a 2b3d 2067 9e3e
000000f0: e712 29bb 46d4 283e 0039 22bb 6811 1d3a

bn2.bias f4 [64]
-0.0009318196 6.6610104e-05 -2.860431e-06 1.0104845e-06 0.0005671764 -0.00012346348 -0.010842807 -0.0012566936
-2.6995924e-05 0.00026441066 -0.0006429337 0.0008962404 -0.0005848758 0.0018983757 -0.0011614762 -0.0007075618
0.0024843425 -7.6736585e-05 0.0045287237 0.0017169033 0.016581902 -0.0067178146 -0.00017201476 5.9948965e-05
0.0044577317 0.0035166205 8.532797e-06 -0.00012942369 7.92242e-05 0.00054003875 0.001881741 0.0074409335
-0.00018752199 -5.819788e-05 0.12104545 -0.0001888766 -0.007421147 2.4817426e-05 -4.077273e-05 -4.5816465e-05
-0.0073381234 0.00050550624 -0.08047797 -1.8894669e-05 0.011071081 -0.00010197869 -2.6088634e-05 3.717721e-05
-9.256481e-05 -0.049820136 0.009069018 3.852701e-05 0.00012712723 -0.0064793588 -0.07952516 -0.0032309126
3.9026927e-05 -1.632176e-05 0.0062418496 -0.018413976 4.856638e-05 0.0045818994 0.00016169401 -4.8200574e-05
00000000: 5b45 74ba 07b1 8b38 d5f5 3fb6 fc9f 8735
00000010: 90ae 143a fa75 01b9 07a6 31bc a4b7 a4ba
00000020: 4e75 e2b7 99a0 8a39 8d8a 28ba adf1 6a3a
00000030: 5a52 19ba ebd2 f83a ad3c 98ba ab7b 39ba
00000040: 5ad0 223b a4ed a0b8 b065 943b b709 e13a
00000050: c5d6 873c 1d21 dcbb dc5e 34b9 b671 7b38
00000060: 2a12 923b 1a77 663b 1628 0f37 e8b5 07b9
00000070: 2b25 a638 6391 0d3a c0a4 f63a 13d3 f33b
00000080: 8da1 44b9 7f19 74b8 ade6 f73d 2d0d 46b9
00000090: 182d f3bb 042f d037 6303 2bb8 0e2b 40b8
000000a0: a474 f0bb f383 043a a2d1 a4bd fe7f 9eb7
000000b0: 7b63 353c 64dd d5b8 ead8 dab7 baee 1b38
000000c0: 5b1f c2b8 3310 4cbd 3896 143c 1098 2138
000000d0: 754d 0539 cd50 d4bb 16de a2bd b8bd 53bb
000000e0: d8b0 2338 b6ea 88b7 6e88 cc3b e8d8 96bc
000000f0: c1b3 4b38 c223 963b 688c 2939 f92a 4ab8

bn2.running_mean f4 [64]
-19.422972 0.25034234 -21.900799 -3.8449373 1.0563915 -0.24013954 84.405975 83.4236
8.196846 53.923187 44.032875 70.12197 8.726747 13.090943 -103.25384 -42.813305
-12.21265 6.9487967 20.65877 -0.72960496 49.684483 -30.132654 -8.165232 -33.474518
-8.823617 6.098239 28.87523 -17.654444 -7.3063855 46.493008 -26.238983 -28.064842
43.95441 -9.327076 38.552567 12.510149 18.808752 19.1802 34.99644 41.96098
86.15213 -64.85837 -42.233025 7.6572847 -58.699562 -10.670271 18.265303 -7.511328
16.65554 -55.897533 72.536766 -30.332325 12.235456 2.6024976 -78.646965 42.799156
-12.925918 -8.374171 -68.64712 -50.881584 -28.439692 71.203476 3.0748093 8.838188
00000000: 3f62 9bc1 df2c 803e d634 afc1 7413 76c0
00000010: d637 873f 24e7 75be dccf a842 e2d8 a642
00000020: 4826 0341 58b1 5742 aa21 3042 733e 8c42
00000030: c1a0 0b41 8174 5141 f781 cec2 d340 2bc2
00000040: 0467 43c1 8b5c de40 2945 a541 64c7 3abf
00000050: e9bc 4642 ad0f f1c1 caa4 02c1 e8e5 05c2
00000060: 892d 0dc1 c624 c340 7900 e741 4d3c 8dc1
00000070: e9cd e9c0 d7f8 3942 70e9 d1c1 cc84 e0c1
00000080: 51d1 2f42 b43b 15c1 d435 1a42 9229 4841
00000090: 5378 9641 0d71 9941 5bfc 0b42 0bd8 2742
000000a0: e44d ac42 7cb7 81c2 9eee 28c2 7a08 f540
000000b0: 5acc 6ac2 6eb9 2ac1 571f 9241 cd5c f0c0
000000c0: 8c3e 8541 1397 5fc2 d312 9142 9aa8 f2c1
000000d0: 6ec4 4341 528f 2640 3f4b 9dc2 5632 2b42
000000e0: 8fd0 4ec1 9bfc 05c1 534b 89c2 be86 4bc2
000000f0: 7d84 e3c1 2e68 8e42 adc9 4440 3869 0d41

bn2.running_var f4 [64]
474.49207 479.26752 523.6298 210.30782 374.98254 178.092 83.33446 79.16474
461.04898 96.45171 96.911766 137.83652 94.850136 293.6996 105.78524 671.8686
57.433655 172.82826 35.858334 83.492874 58.71659 62.973907 462.83963 78.33541
302.63107 81.27176 391.19028 586.3215 469.91373 324.028 91.42826 71.07237
331.93848 433.02814 622.40344 426.5905 95.13757 270.8097 159.69283 502.61847
54.43605 84.50218 585.53925 461.04367 85.91008 439.75787 333.06287 92.95875
326.2995 369.9873 247.43102 376.3466 406.6723 554.2797 306.74063 87.6338
343.23264 521.2445 62.536472 228.85025 452.63138 57.000065 426.22366 496.20303
00000000: fc3e ed43 3ea2 ef43 4fe8 0244 cd4e 5243
00000010: c47d bb43 8d17 3243 3eab a642 5954 9e42
00000020: 4586 e643 47e7 c042 d3d2 c142 26d6 0943
00000030: 45b3 bd42 8cd9 9243 0b92 d342 97f7 2744
00000040: 10bc 6542 09d4 2c43 ef6e 0f42 5afc a642
00000050: cadd 6a42 48e5 7b42 796b e743 bbab 9c42
00000060: c750 9743 248b a242 5b98 c343 9394 1244
00000070: f5f4 ea43 9603 a243 45db b642 0e25 8e42
00000080: 20f8 a543 9a83 d843 d299 1b44 964b d543
00000090: 7046 be42 a467 8743 5db1 1f43 2a4f fb43
000000a0: 84be 5942 1e01 a942 8362 1244 9785 e643
000000b0: f6d1 ab42 02e1 db43 0c88 a643 e1ea b942
000000c0: 5626 a343 60fe b843 576e 7743 5d2c bc43
000000d0: 0e56 cb43 e791 0a44 cd5e 9943 8144 af42
000000e0: c79d ab43 a64f 0244 5925 7a42 aad9 6443
000000f0: d150 e243 1100 6442 a11c d543 fd19 f843

conv3d.weight f4 [1, 64, 1, 3, 3]
-0.004234822 0.0047902563 -0.0056308047 -0.0010732178 0.00011668269 0.0015031361 0.0043900735 -0.008690805
0.00095714116 -0.00016970324 -0.0003130256 -0.00036570235 -0.0040578097 0.0049536214 -0.0019212363 0.0050243214
-0.0055895057 0.0031055226 0.0023448179 -0.0054382808 0.003764744 0.00019109888 -0.0031327684 0.0030828686
-0.0036699579 0.005977315 -0.0029339595 0.0074994415 -0.010018791 0.003245638 -0.01791162 0.026589276
-0.012095755 0.013074032 -0.018910406 0.008271944 0.022773717 -0.047004133 0.02407073 0.013145688
-0.027677136 0.01919503 -0.030537657 0.051793013 -0.025530076 -0.021699663 0.01804802 0.0014692054
0.014178689 0.01042209 -0.026430627 0.0021043397 -0.028078955 0.029459877 0.03259749 0.017294979
-0.31884086 0.1366439 0.030849326 0.08571384 0.014440729 0.16140512 -0.16586448 -0.038640212
0.04264917 -0.013400106 0.04668742 0.0013092218 -0.04053314 -0.011142554 -0.03840054 0.049551334
0.0037738266 -0.007660068 0.0036202122 -0.0051152557 0.0068366057 -0.0017621838 0.0011772889 -0.0026714378
0.0012890719 0.007930783 0.017690452 -0.023653219 -0.008335718 -0.020933896 0.033211924 0.00838304
0.011498813 -0.023842264 -0.018290823 0.053824373 -0.04047818 0.04850845 -0.08240782 0.04449202
-0.02994331 0.036531217 -0.0052334913 -0.044243336 0.062499046 -0.015427481 -0.0062273005 0.050681286
-0.042836547 0.022437196 -0.026045442 0.006024044 -0.036191855 0.084897324 -0.058570053 0.011963723
-0.040878914 0.042967383 0.022859342 -0.04482159 0.028083986 -0.00051955774 0.0048799785 0.021739766
0.020069683 0.016314104 -0.026099207 0.019601222 0.022136627 -0.07535348 0.010766123 -0.07012083
0.06860732 -0.029142782 0.07384827 -0.06509777 0.0035666432 -0.009949961 0.014742565 -0.0011880909
0.004858127 -0.0014150253 -0.02018005 0.031536266 -0.013813507 0.012777419 -0.03196241 0.02430434
0.04075333 -0.10510839 0.07197492 -0.07930681 0.08660917 -0.00082497665 0.0012438011 0.017161617
-0.017709292 0.0010751614 -0.008400183 0.0050580655 -0.008903773 0.017067976 -0.008734361 0.009300123
-0.00879871 0.0039921636 0.07756246 0.18215811 -0.24692506 0.24849759 0.15914136 -0.2987757
0.05276845 0.11211581 -0.2981806 0.03528383 -0.040762503 0.00419555 -0.063740045 0.080761015
-0.010184236 0.046370633 -0.039026577 -0.0015128033 -0.10219675 0.010835724 0.049228337 -0.112974316
0.3817167 -0.239113 -0.113313876 0.1736984 -0.060408354 0.2877797 0.06800493 -0.009435131
0.29339087 -0.41017708 -0.110245 0.043155108 -0.11998503 -0.05308476 -0.0082513075 0.019867903
-0.0105422735 0.003334501 -0.0030381305 -0.0005864932 0.01088132 -0.023830706 0.014879222 0.012282118
0.010998679 -0.022267463 -0.016222058 0.043796964 -0.032380197 0.01703316 -0.08127876 0.068413764
0.13612741 0.06904427 0.22438657 -0.02877591 -0.047689162 0.03660209 -0.20632279 -0.12371814
-0.07122912 -0.13891305 0.101447344 -0.09555358 -0.200196 -0.014607898 -0.21116857 0.07991209
0.20407534 0.28694254 -0.005226122 0.013938144 -0.010210832 0.008673275 -0.020136267 0.013927584
0.00018431031 0.006836686 -0.0076628234 -0.003180899 0.005489258 -0.002153628 -0.004281401 0.008551399
-0.00454016 0.0042233705 -0.0075372327 0.0049170093 0.013964992 -0.025680974 0.012815016 -0.016978022
00000000: 43c4 8abb 95f7 9c3b 9d82 b8bb 37ab 8cba
00000010: 8bb3 f438 e104 c53a 9bda 8f3b e163 0ebc
00000020: a8e8 7a3a 5ef2 31b9 961d a4b9 bdbb bfb9
00000030: 60f7 84bb fd51 a23b fed1 fbba 10a3 a43b
00000040: 2c28 b7bb 0686 4b3b 84ab 193b 9b33 b2bb
00000050: ecb9 763b b761 4839 224f 4dbb f409 4a3b
00000060: ad83 70bb 5add c33b ac47 40bb e0bd f53b
00000070: db25 24bc c5b4 543b 64bb 92bc c1d1 d93c
00000080: 462d 46bc 7734 563c ffe9 9abc 0c87 073c
00000090: f28f ba3c 6887 40bd fb2f c53c 0361 573c
000000a0: 29bb e2bc e53e 9d3c 1c2a fabc e924 543d
000000b0: 7324 d1bc 7ec3 b1bc 71d9 933c 5a92 c03a
000000c0: bb4d 683c 6ac1 2a3c 0b85 d8bc f6e8 093b
000000d0: d605 e6bc d755 f13c f284 053d 33ae 8d3c
000000e0: 1c3f a3be 61ec 0b3e bab7 fc3c bd8a af3d
000000f0: cf98 6c3c 6247 253e 61d8 29be 3345 1ebd
00000100: e5b0 2e3d 1e8c 5bbc 4f3b 3f3d 329a ab3a
00000110: 1406 26bd 428f 36bc e249 1dbd 57f6 4a3d
00000120: 4e52 773b 4f01 fbbb 1541 6d3b e09d a7bb
00000130: 9b05 e03b 14f9 e6ba 434f 9a3a 4a13 2fbb
00000140: 13f6 a83a 1df0 013c 91eb 903c 65c4 c1bc
00000150: 8992 08bc 907d abbc 3a09 083d 0559 093c
00000160: 8465 3c3c da50 c3bc a3d6 95bc f276 5c3d
00000170: 73cc 25bd ccb0 463d 6ec5 a8bd 443d 363d
00000180: ac4b f5bc c2a1 153d b57d abbb 8038 35bd
00000190: 00ff 7f3d 8cc3 7cbc 620e ccbb 2e97 4f3d
000001a0: 6075 2fbd 36ce b73c 405d d5bc 5865 c53b
000001b0: e93d 14bd a6de ad3d 27e7 6fbd 7e03 443c
000001c0: a670 27bd 91fe 2f3d 8443 bb3c d896 37bd
000001d0: 6310 e63c ee32 08ba 3ae8 9f3b 9817 b23c
000001e0: 2d69 a43c 28a5 853c 01ce d5bc be92 a03c
000001f0: df57 b53c ed52 9abd 6564 303c 829b 8fbd
00000200: ff81 8c3d d8bc eebc c33d 973d fb51 85bd
00000210: 58be 693b 2905 23bc cd8a 713c b7b9 9bba
00000220: ec30 9f3b 5f78 b9ba a250 a5bc 2c2c 013d
00000230: 0c52 62bc 6158 513c 04eb 02bd e519 c73c
00000240: f7ec 263d 1143 d7bd 9667 933d 9c6b a2bd
00000250: 2660 b13d 3f43 58ba 0a07 a33a 8596 8c3c
00000260: 1413 91bc 6eec 8c3a eca0 09bc 21be a53b
00000270: 21e1 11bc 24d2 8b3c 911a 0fbc 8b5f 183c
00000280: 7728 10bc b2d0 823b 11d9 9e3d a887 3a3e
00000290: ecd9 7cbe 2776 7e3e f4f5 223e 21f9 98be
000002a0: bb23 583d f99c e53d 21ab 98be c785 103d
000002b0: 95f6 26bd d37a 893b 248a 82bd 0866 a53d
000002c0: c8db 26bc 22ef 3d3d 55da 1fbd 4149 c6ba
000002d0: 884c d1bd 5288 313c a7a3 493d 145f e7bd
000002e0: 5f70 c33e 0ada 74be 1b11 e8bd fedd 313e
000002f0: c06e 77bd dc57 933e 2b46 8b3d cf95 1abc
00000300: 5437 963e bb02 d2be 21c8 e1bd 69c3 303d
00000310: b6ba f5bd 686f 59bd 7e30 07bc 03c2 a23c
00000320: 80b9 2cbc a587 5a3b 5f1b 47bb e4be 19ba
00000330: 9047 323c 9d38 c3bc fbc7 733c f03a 493c
00000340: ce33 343c 416a b6bc 1fe4 84bc 7264 333d
00000350: 19a1 04bd 2089 8b3c 7b75 a6bd 841c 8c3d
00000360: fc64 0b3e 1567 8d3d 98c5 653e 75bb ebbc
00000370: b655 43bd 13ec 153d 4846 53be f05f fdbd
00000380: 93e0 91bd 393f 0ebe a0c3 cf3d 98b1 c3bd
00000390: 2e00 4dbe f755 6fbc 933c 58be f3a8 a33d
000003a0: 20f9 503e 22ea 923e e43f abbb d05c 643c
000003b0: 554b 27bc 5a1a 0e3c d0f4 a4bc 8530 643c
000003c0: 6c43 4139 4706 e03b 6c18 fbbb a176 50bb
000003d0: 3cdf b33b e223 0dbb ff4a 8cbb 2b1b 0c3c
000003e0: 9fc5 94bb 3364 8a3b e4fa f6bb dd1e a13b
000003f0: 6ccd 643c e860 d2bc 13f6 513c 7e15 8bbc

exp_avg f4 [64, 1, 1, 3, 3]
-4.3078522e-05 -3.76162e-05 -2.3925773e-05 -1.7326704e-05 -9.3116e-06 -1.6138956e-06 7.866317e-06 8.73417e-06
1.6053307e-05 -5.2262685e-06 -5.9806475e-06 -7.3750434e-06 -1.2508895e-05 -1.3524958e-05 -1.41583705e-05 -1.2762219e-05
-1.3660801e-05 -1.3834111e-05 5.8643964e-05 4.6476514e-05 6.564573e-05 0.000119247 0.00012646613 0.00014608116
0.00011241 0.00012066677 0.00014094659 -1.7572047e-05 -2.3743769e-05 -1.30632325e-05 -2.2804375e-05 -2.5708474e-05
-5.7950247e-06 -1.3864495e-05 -1.5014361e-05 -8.1495983e-07 -1.0637662e-05 -1.1187291e-05 -1.2127603e-05 -1.7390765e-05
-1.801107e-05 -1.7814746e-05 -1.6750297e-05 -1.781885e-05 -1.6222975e-05 -5.5276567e-05 -4.2714408e-05 -4.1327803e-05
-2.0461099e-05 -4.599014e-06 -1.1825159e-05 1.5420668e-05 2.2716604e-05 1.1458787e-05 -1.6009199e-07 2.001391e-06
2.4224354e-07 -2.614445e-06 3.524729e-07 -1.200162e-06 -4.7318654e-06 -3.6465024e-06 -4.7070816e-06 1.4710246e-05
2.9598543e-06 1.0820818e-05 1.7479757e-05 1.0557267e-06 1.7179177e-06 8.388698e-06 1.7256814e-07 -7.881815e-07
-2.0270149e-05 -2.1801334e-05 1.7650803e-08 -6.887048e-05 -7.12223e-05 -4.896214e-05 -7.363003e-05 -7.848773e-05
-5.605159e-05 3.191269e-05 3.07415e-05 5.1263345e-05 3.053634e-05 1.1713963e-05 2.0551572e-05 7.8506255e-06
-3.2875587e-06 5.56439e-07 -2.2142203e-05 -2.6811456e-05 2.3919195e-06 -1.0694094e-05 -2.8354198e-05 -1.6681631e-06
2.4992733e-05 8.1904855e-06 2.4584107e-05 -1.073124e-05 -8.852573e-06 -5.7809557e-06 -1.7030441e-06 9.409915e-07
2.9605783e-06 3.995361e-06 4.7002877e-06 5.5989385e-06 1.1783458e-05 9.133724e-06 1.4007818e-05 3.1387335e-05
2.9215184e-05 3.2433745e-05 3.1919666e-05 3.103492e-05 3.258068e-05 3.2751454e-05 2.3700604e-05 2.3163611e-05
5.1320378e-05 3.810737e-05 3.0437704e-05 4.306114e-05 3.406649e-05 2.9928762e-05 -9.338155e-06 -1.6464759e-07
1.0069217e-06 -1.5002924e-07 9.014961e-06 2.7351555e-06 -7.675119e-06 -5.0872964e-06 -9.440016e-06 5.8909006e-07
3.7043455e-06 4.333265e-06 -1.246619e-06 3.2737335e-06 4.734379e-06 -5.072115e-06 -2.0979385e-06 -1.0344643e-06
-7.0502447e-06 -1.0348419e-05 -1.3319188e-05 -1.3694845e-05 -1.7092576e-05 -1.9704314e-05 -1.3145388e-05 -1.52626e-05
-1.5264068e-05 -1.6243495e-05 -8.284102e-06 -7.791063e-06 -2.116149e-05 -1.20825225e-05 -1.0175717e-05 -1.1439917e-05
-9.851896e-06 -7.9961965e-06 -1.7020364e-05 -1.4913521e-05 -2.3929935e-05 -7.0191454e-06 4.451698e-06 4.284308e-06
-5.6958256e-06 4.827067e-06 1.1798168e-05 5.936351e-05 1.6430282e-05 -3.3227454e-05 2.5354742e-05 -1.6312853e-06
-2.8299426e-05 -3.179115e-05 -5.183662e-05 -5.393086e-05 -4.430834e-05 -3.932278e-05 -4.4867462e-05 -7.7652294e-05
-7.804676e-05 -8.178396e-05 -6.7500114e-05 -6.948909e-05 -7.7304045e-05 -2.4737714e-05 -1.06848665e-05 -1.7261813e-05
-2.665847e-05 -1.0572474e-05 -1.4931949e-05 -1.2622782e-05 -5.2348055e-06 -9.205759e-06 1.105392e-06 4.0143264e-06
6.6612283e-06 1.737185e-05 1.822532e-05 1.6040873e-05 7.1392296e-06 5.8738196e-06 5.8849114e-06 -4.27089e-06
-1.5886584e-06 2.8124914e-06 -9.557103e-06 -5.159023e-06 6.469116e-06 4.1521838e-07 5.6349368e-06 1.4754593e-05
-2.11856e-05 -2.4552532e-05 -2.1432854e-05 -1.1289856e-05 -2.0824831e-05 -2.1071735e-05 2.7012761e-06 -6.6280236e-06
-1.3539932e-05 8.050859e-06 7.3701193e-07 4.399833e-06 8.872707e-06 8.1807383e-07 1.7515335e-06 3.0198346e-06
3.6635086e-07 -9.034626e-08 8.177588e-06 4.4996473e-06 8.802563e-06 5.51744e-06 1.0320017e-06 6.5431873e-06
2.1025476e-06 -6.390554e-08 2.8462175e-06 3.287069e-05 2.7971557e-05 1.4678079e-06 2.0928897e-05 8.672822e-06
1.7372181e-06 -1.865287e-05 -1.9024998e-05 -2.2298786e-05 1.6676653e-05 2.3565683e-05 4.6773825e-05 3.042105e-05
00000000: 36af 34b8 16c6 1db8 35b4 c8b7 d058 91b7
00000010: 0439 1cb7 089d d8b5 93f9 0337 f988 1237
00000020: 37aa 8637 4e5d afb6 5fad c8b6 2477 f7b6
00000030: 4cdd 51b7 41e9 62b7 bd89 6db7 501d 56b7
00000040: b230 65b7 0e19 68b7 7af8 7538 c7ef 4238
00000050: 48ab 8938 3f14 fa38 fe9b 0439 5d2d 1939
00000060: a9bd eb38 7b0e fd38 10cb 1339 af67 93b7
00000070: 5b2d c7b7 282a 5bb7 064c bfb7 87a8 d7b7
00000080: e272 c2b6 8d9b 68b7 31e6 7bb7 9dc3 5ab5
00000090: 6978 32b7 0db1 3bb7 a977 4bb7 62e2 91b7
000000a0: 7a16 97b7 e070 95b7 fd82 8cb7 b079 95b7
000000b0: 9316 88b7 c3d8 67b8 3f28 33b8 6457 2db8
000000c0: e0a3 abb7 3b51 9ab6 ac64 46b7 a25b 8137
000000d0: 898f be37 1e3f 4037 c0e5 2bb4 a34f 0636
000000e0: b30d 8234 d373 2fb6 823b bd34 4115 a1b5
000000f0: 6ac6 9eb6 6fb6 74b6 86f1 9db6 07cc 7637
00000100: e9a1 4636 0f8b 3537 7ea1 9237 7eb2 8d35
00000110: 3493 e635 2fbd 0c37 2b4b 3934 6c93 53b5
00000120: d009 aab7 02e2 b6b7 879e 9732 8f6e 90b8
00000130: 2e5d 95b8 b35c 4db8 d269 9ab8 c799 a4b8
00000140: f018 6bb8 fdd9 0538 6ff0 0038 9903 5738
00000150: 2514 0038 1787 4437 2a66 ac37 2eb6 0337
00000160: d49f 5cb6 325e 1535 05be b9b7 2ae9 e0b7
00000170: dd84 2036 c96a 33b7 2dda edb7 a6e5 dfb5
00000180: 7ca7 d137 de69 0937 f839 ce37 530a 34b7
00000190: 8385 14b7 08fa c1b6 2694 e4b5 7298 7c35
000001a0: 59ae 4636 e40f 8636 2ab7 9d36 84de bb36
000001b0: 91b1 4537 0c3d 1937 1f03 6b37 e5a5 0338
000001c0: 2113 f537 7809 0838 7be1 0538 7e2b 0238
000001d0: 3da7 0838 9b5e 0938 a9d0 c637 7a4f c237
000001e0: d640 5738 7ad5 1f38 7954 ff37 8c9c 3438
000001f0: 9de2 0e38 870f fb37 12ab 1cb7 fcc9 30b4
00000200: 9125 8735 b917 21b4 f63e 1737 9d8d 3736
00000210: 63c4 00b7 8bb3 aab6 8f60 1eb7 f621 1e35
00000220: 2c98 7836 7766 9136 8151 a7b5 50b2 5b36
00000230: 02dc 9e36 2331 aab6 4fca 0cb6 ecd7 8ab5
00000240: 2491 ecb6 1f9e 2db7 7a75 5fb7 e9c2 65b7
00000250: 0762 8fb7 b14a a5b7 038b 5cb7 2f08 80b7
00000260: 560b 80b7 a442 88b7 f2fb 0ab7 5cb6 02b7
00000270: f483 b1b7 0ab6 4ab7 5fb8 2ab7 12ee 3fb7
00000280: 9249 25b7 6727 06b7 f4c6 8eb7 1635 7ab7
00000290: 25bd c8b7 0086 ebb6 cb5f 9536 edc1 8f36
000002a0: c51e bfb6 31f8 a136 bff0 4537 15fd 7838
000002b0: c3d3 8937 b55d 0bb8 e5b0 d437 89f2 dab5
000002c0: 8e64 edb7 7d57 05b8 266b 59b8 d233 62b8
000002d0: b8d7 39b8 83ee 24b8 1230 3cb8 42d9 a2b8
000002e0: 09ad a3b8 6e83 abb8 d98e 8db8 acba 91b8
000002f0: 4b1e a2b8 d683 cfb7 2743 33b7 76cd 90b7
00000300: a1a0 dfb7 6e60 31b7 3c84 7ab7 70c6 53b7
00000310: a3a6 afb6 6f72 1ab7 fb5c 9435 cdb2 8636
00000320: 8483 df36 c4b9 9137 94e2 9837 838f 8637
00000330: 848d ef36 ba17 c536 0177 c536 aa4e 8fb6
00000340: e339 d5b5 3cbe 3c36 7257 20b7 ac1b adb6
00000350: 4911 d936 2eeb de34 bd13 bd36 7f8a 7737
00000360: bbb7 b1b7 29f6 cdb7 b4ca b3b7 9069 3db7
00000370: fcb0 aeb7 35c3 b0b7 9247 3536 4a66 deb6
00000380: 9129 63b7 2d12 0737 13d7 4535 47a2 9336
00000390: fddb 1437 9b99 5b35 3c16 eb35 5da8 4a36
000003a0: e1ae c434 6204 c2b3 7932 0937 adfb 9636
000003b0: b8ae 1337 7322 b936 4f83 8a35 8d8d db36
000003c0: 7e19 0d36 713c 89b3 a501 3f36 a2de 0938
000003d0: 76a4 ea37 7f01 c535 7790 af37 7d81 1137
000003e0: 5c2a e935 bc78 9cb7 df97 9fb7 470e bbb7
000003f0: d7e4 8b37 ebae c537 032f 4438 b530 ff37

exp_avg_sq f4 [64, 1, 1, 3, 3]
4.1751463e-08 2.8569701e-08 3.7144545e-08 1.7402167e-08 3.5925878e-09 1.4188386e-08 3.1743465e-08 1.7696527e-08
2.994643e-08 1.7627462e-09 1.1367289e-09 7.0947304e-10 2.836216e-09 2.4189648e-09 1.7659579e-09 2.4078448e-09
2.250548e-09 1.8509981e-09 1.5870962e-07 1.4070775e-07 1.7182938e-07 2.0377732e-07 2.5300565e-07 3.456939e-07
1.1293292e-07 1.6650051e-07 2.5246564e-07 1.512792e-08 1.33985605e-08 8.629444e-09 2.6005738e-08 2.7235e-08
1.9056378e-08 2.2280357e-08 2.4570703e-08 1.8129608e-08 1.6182906e-09 1.1982955e-09 1.5894442e-09 3.7811505e-09
3.410977e-09 3.1753342e-09 3.723519e-09 3.820754e-09 3.3431224e-09 4.1847546e-08 2.9891233e-08 2.5515835e-08
1.441222e-08 6.8220367e-09 6.2309686e-09 2.8968664e-08 2.3147017e-08 2.214822e-08 1.4382978e-10 1.8248501e-10
1.05258344e-10 2.0582676e-10 1.2020303e-10 1.13030814e-10 2.549424e-10 1.4013785e-10 1.9074173e-10 2.4093196e-09
1.2799506e-09 2.2580957e-09 7.419923e-09 8.610296e-09 8.108151e-09 4.0231383e-09 4.946746e-09 4.835096e-09
1.6482365e-07 1.4703161e-07 7.027974e-08 2.0357103e-07 1.8730624e-07 8.704862e-08 1.5246837e-07 1.4285726e-07
6.712007e-08 1.577211e-08 6.739812e-09 1.3494525e-08 5.462062e-09 3.5921368e-09 5.4953992e-09 2.8634761e-09
2.6810254e-09 5.052456e-09 1.7619737e-08 1.4430567e-08 1.4039572e-08 1.2994286e-08 1.3674311e-08 1.1043538e-08
1.19573675e-08 6.7638655e-09 1.1821569e-08 1.3277666e-09 1.0611046e-09 1.4306508e-09 1.51565e-10 1.1142503e-10
6.503792e-10 1.0918969e-09 1.0667744e-09 1.605087e-09 9.586821e-09 5.0848628e-09 3.5224739e-09 1.5871517e-08
1.160079e-08 9.381118e-09 1.2332818e-08 1.0857728e-08 9.506925e-09 3.7844377e-08 2.6178395e-08 1.7691434e-08
6.3984935e-08 5.8976802e-08 4.546595e-08 5.8611473e-08 6.113391e-08 5.1408154e-08 3.844492e-09 2.949517e-09
2.8255045e-09 2.4122015e-09 2.366087e-09 2.7617961e-09 1.7864166e-09 1.4958786e-09 2.9141427e-09 1.5254416e-09
1.8130726e-09 1.267643e-09 1.6657556e-09 1.5782156e-09 8.144367e-10 1.442605e-09 1.3022925e-09 5.950131e-10
1.1136073e-09 2.3430518e-09 3.6841765e-09 1.7363482e-09 3.2675782e-09 4.616666e-09 1.8540209e-09 2.8737035e-09
3.3045346e-09 7.2468533e-09 4.51194e-09 3.3639218e-09 1.2754083e-08 1.2302623e-08 1.068545e-08 8.190621e-09
9.992104e-09 9.3341725e-09 3.930401e-09 4.247557e-09 5.7143756e-09 2.2681124e-09 4.8729554e-09 7.724662e-09
4.655662e-09 2.944751e-09 6.377341e-09 2.1760826e-08 1.8725707e-08 5.9696895e-08 1.1951457e-08 7.459787e-09
9.368075e-09 2.322454e-08 2.2923349e-08 2.3416785e-08 5.886066e-08 3.92701e-08 2.8637388e-08 8.180883e-08
7.825048e-08 7.243497e-08 5.4583776e-08 6.0639266e-08 6.863285e-08 8.211765e-09 2.8564278e-09 3.5949344e-09
1.1981035e-08 9.51463e-09 9.308036e-09 6.7364088e-09 6.511715e-09 6.903412e-09 1.627496e-09 1.6179307e-09
1.0355818e-09 1.522707e-09 1.5159701e-09 1.3311301e-09 9.708409e-10 1.2144492e-09 1.3304016e-09 2.997364e-08
3.709801e-08 3.6766803e-08 1.907278e-08 2.612571e-08 3.2418644e-08 1.1943012e-08 1.5966657e-08 2.2301691e-08
4.125038e-09 3.7372203e-09 3.6365777e-09 3.175031e-09 1.6974836e-09 2.8287626e-09 8.782424e-09 3.6952992e-09
2.9753082e-09 5.4085836e-10 1.515489e-10 3.1578698e-10 1.4647921e-09 1.7221745e-09 1.7744924e-09 6.533065e-10
9.515569e-10 1.0574807e-09 6.029431e-10 5.9377364e-10 1.195155e-09 5.6948635e-10 1.0221656e-09 1.6944495e-09
3.8216144e-10 5.3445126e-10 7.93839e-10 2.0247084e-08 1.7194719e-08 2.2131204e-08 1.7537129e-08 7.459616e-09
9.10447e-09 2.8866932e-08 2.0700732e-08 2.5612408e-08 1.4100655e-08 5.7065996e-09 1.9670024e-08 7.105116e-09
00000000: 3852 3333 7069 f532 dc88 1f33 c57b 9532
00000010: 79e1 7631 2ec1 7332 4f56 0833 1303 9832
00000020: 739e 0033 1e45 f230 183b 9c30 ba04 4330
00000030: 3de7 4231 e13a 2631 1fb6 f230 4177 2531
00000040: 0fa8 1a31 3566 fe30 c569 2a34 7415 1734
00000050: 1a80 3834 e2cd 5a34 d5d4 8734 cf97 b934
00000060: 8885 f233 50c7 3234 9d8a 8734 a6f2 8132
00000070: 7e2f 6632 b240 1432 3963 df32 66f2 e932
00000080: 6bb1 a332 0663 bf32 8c0f d332 6ebb 9b32
00000090: 8a6a de30 46b1 a430 9973 da30 5aeb 8131
000000a0: 8b66 6a31 1235 5a31 d7e0 7f31 b547 8331
000000b0: d5bc 6531 ddbb 3333 c261 0033 ea2d db32
000000c0: 9d99 7732 4567 ea31 2e18 d631 c4d6 f832
000000d0: d4d4 c632 7340 be32 7c24 1e2f f7a4 482f
000000e0: 2e77 e72e 154f 622f 252a 042f b18e f82e
000000f0: f427 8c2f 4c15 1a2f 06b9 512f 3391 2531
00000100: 42ea af30 d72c 1b31 55f2 fe31 7bec 1332
00000110: 064c 0b32 e63b 8a31 0af8 a931 f421 a631
00000120: 61fa 3034 bedf 1d34 b2ec 9633 2e95 5a34
00000130: 591e 4934 7cef ba33 30b6 2334 4e64 1934
00000140: a623 9033 3d7b 8732 0394 e731 8cd5 6732
00000150: ceac bb31 8ad9 7631 0bd2 bc31 cec6 4431
00000160: 193d 3831 df99 ad31 365a 9732 4eea 7732
00000170: b132 7132 793d 5f32 41ec 6a32 feb9 3d32
00000180: 0f6d 4d32 9767 e831 cf17 4b32 a27c b630
00000190: 4dd6 9130 8da0 c430 c1a5 262f b706 f52e
000001a0: 5ec6 3230 b511 9630 ca9d 9230 fa99 dc30
000001b0: 49b3 2432 edb6 ae31 0410 7231 d655 8832
000001c0: d04c 4732 982a 2132 4fe0 5332 cb88 3a32
000001d0: e653 2332 558a 2233 e6de e032 e0f7 9732
000001e0: 1768 8933 ae4d 7d33 5746 4333 ffbb 7b33
000001f0: b948 8333 ddcb 5c33 8218 8431 74b0 4a31
00000200: cd2a 4231 e6c3 2531 a598 2231 08ca 3d31
00000210: f285 f530 8d97 cd30 2442 4831 b4a7 d130
00000220: d22f f930 3939 ae30 91f0 e430 86e8 d830
00000230: e3de 5f30 2745 c630 58fc b230 538e 2330
00000240: 930d 9930 6703 2131 b82c 7d31 52a4 ee30
00000250: d88b 6031 a0a0 9e31 90d0 fe30 ba7a 4531
00000260: fd15 6331 ffff f831 7207 9b31 bd2a 6731
00000270: 0d1d 5b32 825b 5332 1b93 3732 bbb6 0c32
00000280: bda9 2b32 205c 2032 2c0c 8731 e8f1 9131
00000290: 2e58 c431 0edd 1b31 f86e a731 6cb5 0432
000002a0: a3f7 9f31 9c5c 4a31 af1f db31 90ec ba32
000002b0: 44da a032 b732 8033 1053 4d32 7d28 0032
000002c0: 3bf1 2032 4e7f c732 fae8 c432 0e26 c932
000002d0: fbcd 7c33 eea9 2833 48fe f532 e1ae af33
000002e0: a80a a833 8c8d 9b33 7f6f 6a33 ca38 8233
000002f0: 4f63 9333 b913 0d32 cf4a 4431 c10a 7731
00000300: 26d5 4d32 c975 2332 2de9 1f32 1476 e731
00000310: a7bd df31 0e33 ed31 6dae df30 e05d de30
00000320: 4c54 8e30 7d47 d130 755a d030 faf2 b630
00000330: 6d6e 8530 a2e9 a630 58d9 b630 5ebc 0033
00000340: b255 1f33 87e9 1d33 7dd5 a332 0b6b e032
00000350: ad3c 0b33 ec2d 4d32 0d27 8932 f091 bf32
00000360: 38bc 8d31 f068 8031 5ae7 7931 bc2f 5a31
00000370: e54c e930 1e64 4231 82e1 1632 64f0 7d31
00000380: 2d76 4c31 86ab 1430 39a1 262f 119b ad2f
00000390: ca51 c930 a1b1 ec30 67e2 f330 5c94 3330
000003a0: efc7 8230 cb56 9130 59bc 2530 1b37 2330
000003b0: c742 a430 0a8a 1c30 417c 8c30 24e2 e830
000003c0: 7118 d22f aae8 1230 7435 5a30 cfeb ad32
000003d0: 96b3 9332 081b be32 8ea4 9632 bd27 0032
000003e0: e269 1c32 0ef7 f732 64d1 b132 4802 dc32
000003f0: 563f 7232 c813 c431 d7f6 a832 4321 f431

exp_avg f4 [64]
1.4622743e-09 8.867097e-10 -5.755791e-09 -4.2295253e-10 -4.962957e-10 6.1111205e-09 2.0821363e-10 -9.2849906e-10
-5.253138e-10 -4.7325954e-10 -4.0215503e-10 3.4246656e-10 -9.537938e-10 5.5454136e-10 -6.4324973e-10 -1.0689388e-10
3.5844921e-10 6.4630695e-10 7.913688e-10 2.083165e-09 -4.4639514e-10 1.9822193e-09 -5.5338006e-10 2.338852e-09
-1.8644666e-10 6.3901856e-10 -3.4402742e-10 2.2135078e-09 -9.470148e-10 7.439173e-10 -1.9662635e-10 -1.1252436e-10
1.0404414e-09 4.743509e-09 4.9224697e-10 1.1167663e-09 2.5416413e-09 8.1373436e-10 -3.2857164e-09 1.467063e-09
-4.4812114e-09 2.7698172e-11 -9.645189e-10 9.454643e-10 5.8562244e-10 -1.8274307e-10 -2.4027252e-10 -1.4836046e-10
1.6970161e-10 4.7473286e-10 -2.2666378e-09 1.7147207e-09 8.0767844e-11 1.1009259e-09 -4.5293796e-11 2.5839382e-09
-4.174118e-10 8.786933e-09 -6.8135115e-09 -2.1005095e-09 3.7135306e-09 4.2893133e-10 -6.50892e-11 -4.046518e-09
00000000: 34f9 c830 a6bc 7330 79c4 c5b1 4785 e8af
00000010: b56b 08b0 fcf9 d131 edee 642f 5039 7fb0
00000020: ac65 10b0 ae16 02b0 4a16 ddaf e245 bc2f
00000030: a316 83b0 616e 1830 add0 30b0 e80f ebae
00000040: 3e0f c52f cfa7 3130 a187 5930 6d27 0f31
00000050: 8868 f5af 9237 0831 a91c 18b0 85b9 2031
00000060: 1200 4daf efa6 2f30 8e21 bdaf 711c 1831
00000070: 1f28 82b0 877c 4c30 6631 58af 9571 f7ae
00000080: 47ff 8e30 59fc a231 cd4e 0730 b97c 9930
00000090: 07a9 2e31 77ad 5f30 efca 61b1 b1a1 c930
000000a0: 27f9 99b1 bda2 f32d fe8f 84b0 91f1 8130
000000b0: 84f9 2030 9aed 48af 5a17 84af c21f 23af
000000c0: c296 3a2f 5b7e 0230 1dc3 1bb1 5fab eb30
000000d0: 419c b12e 634f 9730 4834 47ae 1f91 3131
000000e0: 7d79 e5af 57f5 1632 481c eab1 8e58 10b1
000000f0: 1f31 7f31 b8ce eb2f f621 8fae 8c09 8bb1
